softmax_best_model.pt (torch, 246604 bytes, 1 tensors)

W f8 [3073, 10]
-0.02371861941483618 -0.11215301432071113 -0.07395794691005758 -0.046168897625161305 0.034822848897623555 0.05837458589824804 0.03744028820405863 0.06325575204331006
0.02016150953152568 0.0419423081914674 -0.029580400845452142 -0.1055496385812066 -0.06675011826649253 -0.03190249819694439 0.03422687307571863 0.05746943600983388
0.039909687271995044 0.06843520901368295 -0.0014036645590929896 0.03514383280548882 -0.023216643631383666 -0.09468651596271171 -0.08079304351607543 -0.04431147787436087
0.03573760270260312 0.049816210914952204 0.04265659530934982 0.07581155011271802 0.007729459645300547 0.03125716098234415 -0.0160740561797419 -0.08103805916344041
-0.07990086024509381 -0.038549089371148884 0.02026079054582894 0.05738068481514489 0.04745327790347683 0.05654408501668973 0.005988686880625726 0.027931013936653534
-0.01647828956270287 -0.08085445716854203 -0.06609913121853037 -0.044230967245390024 -0.00034249289468192383 0.07228529490026328 0.03959482132601218 0.06521412794632885
0.007210116648742302 0.02370249629935652 -0.01167970123153658 -0.08975193437490318 -0.06443220236807042 -0.04467617514186477 -0.011896090049643447 0.07143283475182834
0.04557890823568984 0.08654451069735743 0.012444014836583887 0.00643426436592256 -0.01106800712484098 -0.07011230751211224 -0.04652236285884693 -0.047703612411784745
-0.016035539694648243 0.07254548033099034 0.03638102122015395 0.07377607020645546 0.008277320558842878 0.0004599181321534435 -0.01320766109839609 -0.0528961462870967
-0.03731499213952285 -0.03969452143601601 -0.014736281076674393 0.07489530991473277 0.017032576351273355 0.07173685550490498 -0.014234754266685433 0.008419603212513997
-0.01487739102377317 -0.058878842762737735 -0.03371521339756015 -0.04027142466474855 -0.009157797825537797 0.07518999415462331 0.004194312457547581 0.08373283572484927
-0.012927641012286514 0.006717261143778803 -0.026016966588320607 -0.04666539391029543 -0.030500925142209298 -0.04539918259106272 -0.01821834552032308 0.07820333593469199
0.006544882542373193 0.07060292154814417 -0.01544479404833409 0.026893174331046654 -0.009092357941354908 -0.05150981832294259 -0.04455664234095783 -0.04186381398914728
-0.02708207784114724 0.06998885939269096 0.011222086429972605 0.07049247380626256 -0.0019589244931997496 0.024361690537868404 0.005486966165800017 -0.04933378696435879
-0.05653972548519867 -0.027117271163332072 -0.035187588653118114 0.061242850458650945 0.0001035796157400313 0.06067106760201421 0.0009580326881085534 0.0397128310125926
0.01599040716585233 -0.05014504051584141 -0.08038492712486035 -0.008119726379852046 -0.04791868215089042 0.06317062027739971 0.016763960687075547 0.019815996656157495
0.005072456824444941 0.06575680623583019 0.02084637265854786 -0.053691133477499486 -0.08629410861566364 0.005681136555111954 -0.06899602122276315 0.06552539902779138
0.027154205627331528 -0.008820615195130638 0.017426842157201545 0.08116886892568283 0.026195041704402816 -0.056682856313675783 -0.08446657052881743 0.020139531662732607
-0.09216573404870111 0.06570053120440805 0.025534070534693164 -0.013281775611204681 0.02699023507201327 0.0820425224476941 0.02802349773979258 -0.049960500619048
-0.09647008348773005 0.022080120379070395 -0.1063497748386405 0.06531330023601277 0.028381478356196664 0.004261372277316713 0.027264686746474035 0.07745590120401877
0.03301330968232161 -0.04008216987609479 -0.10572023460960217 0.014408042777166681 -0.10052679500518985 0.04893019314697469 0.027338774080016903 0.03714602964786662
0.021026743895148664 0.06447177774848037 0.01980735442849026 -0.01961752523647858 -0.09765066899125352 -0.013821896729160928 -0.09081691542820397 0.045695327732877274
0.018212521291530812 0.04307787354897534 0.026147924777147728 0.06896337447487023 0.0033835138867129065 -0.023540177099979367 -0.0995938547203173 -0.019132335913958
-0.08894014485922128 0.05699332531523247 0.023964676320572836 0.06134932562800333 0.018761360660389113 0.06674721674848746 -0.003221315870786447 -0.057078818373346094
-0.10436940468170151 -0.017226425081131376 -0.08869070118173072 0.06492842484650245 0.02549801770889711 0.060110028087760316 0.03593849734937766 0.08411406638396401
-0.0005534796104863971 -0.06304746488843686 -0.11226321947173101 -0.0025638635939336588 -0.08827261005677883 0.06448433235567226 0.02672034181058453 0.04369606801066374
0.037315405268331506 0.0944879389432931 0.010378720592062256 -0.06321999051258756 -0.10224160361266839 -0.002086119219321077 -0.07821971112633813 0.05578729794628357
0.03351097044783062 0.03060823292550736 0.037831520409071645 0.07765331651024532 0.0033552272309394474 -0.07697024809926319 -0.05709594062809581 -0.017688517299095922
-0.04683391907003819 0.04615239499320906 0.020546856399198257 0.022803115770160864 0.031096346549914344 0.07463716681335836 -0.0061984649590445156 -0.09935511563625768
-0.009446482662482726 -0.03147633099588514 -0.03462775329125731 0.038055296269864376 0.010598381765224062 0.014819983642024444 0.01517160540668051 0.1024578436624911
-0.013287279040278595 -0.10819557701007648 -0.022686911010744736 -0.043040333073491185 -0.029225548967651244 0.037813133602415935 0.012819743882233156 0.03058204141970643
0.0113303516770324 0.12389129452304996 -0.024976875560361857 -0.10260949726090554 -0.061202710215850296 -0.04408372955290456 -0.004670931376564759 0.04390101247285383
00000000: b59f c59a b149 98bf 09c0 a758 0fb6 bcbf
00000010: 640c 4273 e8ee b2bf e1ed c822 73a3 a7bf
00000020: 9172 56ea 4cd4 a13f 1c77 b312 46e3 ad3f
00000030: 4e4b c79a 5f2b a33f bb55 4f6a 8731 b03f
00000040: 70b7 4d00 38a5 943f e390 0054 7679 a53f
00000050: 0b66 ef18 534a 9ebf 4997 cf15 4d05 bbbf
00000060: 856e f526 8916 b1bf 5649 d534 8655 a0bf
00000070: f654 0249 2f86 a13f 0e15 5d48 a26c ad3f
00000080: bdec 40e3 0a6f a43f 49d3 9b48 f884 b13f
00000090: 7011 0e58 65ff 56bf 4f80 1c59 5ffe a13f
000000a0: 458d 7a94 1ac6 97bf 7099 6e21 603d b8bf
000000b0: 5956 a557 daae b4bf f398 9d78 feaf a6bf
000000c0: c8b3 b0f5 324c a23f 9976 61a9 8281 a93f
000000d0: 3dee 9fd3 15d7 a53f 09a8 64c0 6268 b33f
000000e0: d4ee 4606 eda8 7f3f 17b5 5e48 f000 a03f
000000f0: 839a 6ca6 b775 90bf 279a d605 e9be b4bf
00000100: 29c9 acfd 6174 b4bf 4282 47cc b4bc a3bf
00000110: b84a 24a3 3ebf 943f cd00 6849 0061 ad3f
00000120: dbea 5dc9 cb4b a83f 309c dba7 58f3 ac3f
00000130: 99b8 c5e4 9787 783f 3fb2 9b9d f299 9c3f
00000140: f234 104b afdf 90bf 1a54 46b1 e0b2 b4bf
00000150: 6eaa e066 dfeb b0bf e42b 94fb 70a5 a6bf
00000160: e028 22c8 1372 36bf 820e 9401 4a81 b23f
00000170: ba53 5fbd c545 a43f a742 c482 dfb1 b03f
00000180: a49d 4ef3 5a88 7d3f 25d7 c199 7745 983f
00000190: 6f31 88f6 86eb 87bf 3398 e496 fbf9 b6bf
000001a0: e5e8 faf9 a07e b0bf 2613 4aae cbdf a6bf
000001b0: 0c3a b52d fa5c 88bf 05a3 1e19 6c49 b23f
000001c0: d9f3 8460 1e56 a73f cded 17f3 c727 b63f
000001d0: 0f54 0866 3f7c 893f 1a44 68b0 d05a 7a3f
000001e0: eb8f 10c5 d2aa 86bf 25c6 cf53 e1f2 b1bf
000001f0: 41d5 0576 c7d1 a7bf 8b5a 6b9e 9b6c a8bf
00000200: a8b7 3fda 9e6b 90bf dc84 7e31 5792 b23f
00000210: 6ed9 ab80 88a0 a23f c69d c310 fde2 b23f
00000220: 7737 ca28 b3f3 803f ecb2 2056 2524 3e3f
00000230: 374a cb43 9e0c 8bbf fe67 c624 3415 abbf
00000240: 038d c75d f31a a3bf 7cce cb1e d752 a4bf
00000250: d8d4 4f2a 0e2e 8ebf c522 b5ca 562c b33f
00000260: 8dd4 94d9 fc70 913f d3ba 4fb8 585d b23f
00000270: 8c09 5660 1c27 8dbf bc5a 8b03 4c3e 813f
00000280: 01df 2c9f 0978 8ebf f63f 2f20 5e25 aebf
00000290: 1522 d7d5 1e43 a1bf 12fe cbc7 749e a4bf
000002a0: 2e01 50d1 52c1 82bf f56a e1c5 a63f b33f
000002b0: b796 592d 0e2e 713f 2221 0adf 836f b53f
000002c0: 8bc8 e59a ce79 8abf 8748 e60e 8f83 7b3f
000002d0: d545 8d12 31a4 9abf fd3b 66c9 86e4 a7bf
000002e0: 4c23 ef6f a23b 9fbf 66cc fcc8 8f3e a7bf
000002f0: 7ebe c978 d4a7 92bf 0911 4742 2205 b43f
00000300: 9447 9c87 cece 7a3f 2724 0d77 0813 b23f
00000310: bbfd a52a 85a1 8fbf e02b f360 e289 9b3f
00000320: 915e 03a0 039f 82bf c668 3db2 7e5f aabf
00000330: 4514 59d3 20d0 a6bf ee3c f07f 2c6f a5bf
00000340: 5fb4 8a7a 67bb 9bbf 110b 2d36 caea b13f
00000350: 104c adf1 9afb 863f 48ae 9c75 cb0b b23f
00000360: a9aa 4694 290c 60bf dfaa 8a60 45f2 983f
00000370: 7a2b c843 8079 763f b612 3333 4742 a9bf
00000380: 5c7a c45f c6f2 acbf c18d 3643 a1c4 9bbf
00000390: 2101 fb8c 1b04 a2bf eddd aa0f 395b af3f
000003a0: fc7e a03f 1c27 1b3f 2cff 5336 4710 af3f
000003b0: 7cb3 2e88 8f64 4f3f 707f dc7c 3d55 a43f
000003c0: c4e8 4e0f ca5f 903f baee 245a 9cac a9bf
000003d0: d9b5 1749 1b94 b4bf 080e 083a 13a1 80bf
000003e0: 6b36 6929 cc88 a8bf c7d2 2824 f32b b03f
000003f0: c513 9c5b 922a 913f 79a9 4d06 a54a 943f
00000400: 2ae7 bd42 dbc6 743f 6cb5 4524 70d5 b03f
00000410: a919 3c63 c058 953f c8f7 bd7c 677d abbf
00000420: be7c 57e6 5e17 b6bf 1943 557b 1a45 773f
00000430: 2fb5 b426 b9a9 b1bf 05b8 e1c5 45c6 b03f
00000440: 0616 79e4 4fce 9b3f 7078 59ee 8a10 82bf
00000450: 550a 8d94 57d8 913f dd36 7da5 7bc7 b43f
00000460: c845 c07d dfd2 9a3f b4e2 380c 8905 adbf
00000470: decb 06e6 999f b5bf b88c 6417 759f 943f
00000480: a90e 8d6d 2c98 b7bf 7c4e da00 c0d1 b03f
00000490: 0664 8577 9a25 9a3f f93f 10bf 7933 8bbf
000004a0: 4458 c803 54a3 9b3f 2b50 cb1e bd00 b53f
000004b0: f36c 3f19 31b2 9c3f 804e 8038 6c94 a9bf
000004c0: db47 9f6d 43b2 b8bf 48ed adcb 2b9c 963f
000004d0: d871 de24 bd39 bbbf c7eb 8158 5fb8 b03f
000004e0: c671 68c5 0810 9d3f 8312 1369 5f74 713f
000004f0: 71ac a527 46eb 9b3f 0eb0 8d62 26d4 b33f
00000500: 4c2a d6da 1ee7 a03f ad84 8a71 a685 a4bf
00000510: dc76 2c36 7b10 bbbf 04e9 37c4 f681 8d3f
00000520: b442 ebc0 1fbc b9bf 34d9 b4d6 600d a93f
00000530: 937a 5812 b2fe 9b3f 3015 07ed cd04 a33f
00000540: 98ef 7be5 0888 953f 1ad8 f1f0 3881 b03f
00000550: 056c f60d 6148 943f 0fca 46d5 9d16 94bf
00000560: 10fd bf5d a2ff b8bf 510d 5d93 a74e 8cbf
00000570: 540f b001 c73f b7bf d9aa 62c4 6065 a73f
00000580: d99f 4c9d 4da6 923f d6ec 2594 4d0e a63f
00000590: 91be 1a87 85c6 9a3f 59ca fd6d 95a7 b13f
000005a0: 4ad6 a52f beb7 6b3f a455 258b ea1a 98bf
000005b0: c505 e89c fb7e b9bf 1aa7 2f54 6d97 93bf
000005c0: aecb 7805 c8c4 b6bf cd6f a3a8 3a2e ad3f
000005d0: 986e 3934 328a 983f 6169 68c6 2d69 af3f
000005e0: f9fc db99 2d36 933f 9ea5 0879 5816 b13f
000005f0: 0469 15ca 9663 6abf b66a 6a54 6f39 adbf
00000600: f796 cf0b f4b7 babf 42dd 66d1 cda3 91bf
00000610: 68eb 080d 6fb4 b6bf dbe8 4b35 269f b03f
00000620: d5ae b000 271c 9a3f 6dde 98d9 bdc6 ae3f
00000630: 19e0 90dd 8766 a23f d8b0 40dc 7f88 b53f
00000640: a4bd bb69 ec22 42bf aba2 caef e023 b0bf
00000650: c0bc 2c48 48bd bcbf d0f8 31c9 cf00 65bf
00000660: a490 53a5 0899 b6bf 0d6f 9292 0b82 b03f
00000670: 328c dbc8 935c 9b3f a2a1 23be 545f a63f
00000680: 9a68 873a 011b a33f 50bd a08f 5c30 b83f
00000690: 0949 234c 7041 853f 7a7a b46f 2f2f b0bf
000006a0: f597 ce77 812c babf aa41 52ba e816 61bf
000006b0: 44b0 30fd 3406 b4bf 3149 6c18 2790 ac3f
000006c0: 36e5 4294 5928 a13f 1316 9dbd c357 9f3f
000006d0: 4c70 d42d a75e a33f 8062 d676 16e1 b33f
000006e0: 79f4 47e7 6b7c 6b3f 85f1 597a 52b4 b3bf
000006f0: 88cc 76db ad3b adbf 3ee4 414d f01c 92bf
00000700: 7fa7 7f8d 9dfa a7bf 097d 4166 49a1 a73f
00000710: 17a6 1431 3c0a 953f b041 eb31 b359 973f
00000720: 83ee d37d b8d7 9f3f 648b 87de 6b1b b33f
00000730: f54d 8dc4 8f63 79bf 2a18 593c 566f b9bf
00000740: 87df c770 ad58 83bf 5767 7368 aa1d a0bf
00000750: fcfd d697 baba a1bf 615a d6d9 fb7b a33f
00000760: acc8 93b8 9ab4 853f 11d9 8e88 f059 8e3f
00000770: 4665 6568 4a12 8f3f b7c3 bf5f ad3a ba3f
00000780: 3e53 7267 5c36 8bbf 4483 d490 b4b2 bbbf
00000790: 6688 5ad3 3c3b 97bf 9e4f ebed 6109 a6bf
000007a0: 1547 1864 4ded 9dbf e601 5d38 3e5c a33f
000007b0: 3801 bde5 3c41 8a3f bd60 f80e e650 9f3f
000007c0: e581 3d0f 5e34 873f 8350 3c02 57b7 bf3f
000007d0: 3a87 c0be 8993 99bf 829d feb2 9d44 babf
000007e0: fb76 9b2d f655 afbf 564d 6e81 2492 a6bf
000007f0: 353a 1198 d321 73bf 8015 aa89 317a a63f
