Without Neural Networks/svm_best_model.pt (torch, 246592 bytes, 1 tensors)

W f8 [3073, 10]
0	0xbfa987406fc9aa5c	-0.04986001362415912
1	0xbfba7bcd9ba14131	-0.10345158624227647
2	0xbfc13b47ca003314	-0.13462159503287607
3	0x3f9a16b642c0a31e	0.025477264236687273
4	0x3f93c7c23bff8fa8	0.019316706573490855
5	0x3fa2cb58ff9ec094	0.0367076694523131
6	0x3fb35185965d844d	0.07546267434146721
7	0x3f8ba1dafd147642	0.013492308472048301
8	0x3fb3f008bd171a2a	0.07788138023816119
9	0x3fa445ab51933545	0.0395940339163681
10	0xbfb0bec9ee13c3c8	-0.065411205887144
11	0xbfb733b87ea3009c	-0.09063294498173707
12	0xbfbddc20e2aff0ea	-0.11664014372212575
13	0x3fa6f2a3b724d9a2	0.04481994257587309
14	0x3f8e737f186fd4de	0.014868729527714949
15	0x3fa1df0e79bfb554	0.034904911386414966
16	0x3fb6b69c76b889e5	0.08872392557581284
17	0x3f9c7c0a3ab01533	0.027816924888630367
18	0x3f9f54d15f2c9e64	0.030596991952874922
19	0x3f9fb1c7d2d4d53f	0.030951616519094612
20	0xbfafe9e42afd3b0b	-0.06233132385988512
21	0xbfb5595c7f26c041	-0.0833947954586174
22	0xbfbd2efd9fe12ca0	-0.11399827149687036
23	0xbf80158a73cd335e	-0.007853585871680554
24	0x3f990af5642c5283	0.02445586608799256
25	0x3f7236243d2ff85a	0.004446164663930297
26	0x3fb53047add8a7f4	0.08276794428152795
27	0x3fb06dce5f80dfd1	0.06417550880075786
28	0x3faabc4cecaf1813	0.05221786870201597
29	0x3fa43b6037405f8d	0.03951550173240923
30	0xbfac6d79a4201cc4	-0.055522729191630954
31	0xbfaef9a0e8be453d	-0.060498264704742934
32	0xbfb90d5c99dd55ce	-0.09786013370952348
33	0xbf97ad8a655c80da	-0.02312294238720445
34	0x3f84d1db40176ebc	0.010165894406717661
35	0x3fa09976e1c600a1	0.0324208403208115
36	0x3fae11e1db5ce415	0.05873018076676587
37	0x3f99af403a4eec57	0.025082591589790173
38	0x3fb0add7c30951ad	0.06515263091689034
39	0x3fa745063b1dda65	0.045448488918670184
40	0xbfa490998dbdaeb5	-0.040165709068643286
41	0xbfada770ceb0d9b8	-0.05791809580880475
42	0xbfb0497f9c369b5d	-0.06362149776269406
43	0xbfaebec820969161	-0.060049299219175685
44	0xbf8978caa0d877b5	-0.01243742278444047
45	0x3fb0d2473fcec806	0.06570859248930114
46	0x3faaece5b99353b1	0.05258863344503285
47	0x3fa09df42658ee42	0.032455091172292075
48	0x3fa8862d5d52cff7	0.04789869083597858
49	0x3fa232a066cb7151	0.03554250006502236
50	0xbf9c62edb69323f9	-0.02772113253448436
51	0xbfb1f03320b37c27	-0.07007140682570477
52	0xbfb712c78562480e	-0.09013030058329738
53	0xbfa62c2adaf959a7	-0.043305720548846786
54	0xbf93cf26b3816072	-0.01934490652669791
55	0x3fb06bfc32f78edc	0.06414772266685581
56	0x3fb0c48274e1f422	0.0654984984739291
57	0x3fb0747069bbf955	0.06427671986964374
58	0x3faebf8ba9488e4d	0.060055126585464615
59	0xbf6be72e424ff655	-0.0034061339852076524
60	0xbf9af2b333977c16	-0.02631645204916929
61	0xbfa062d6f0c90dfb	-0.03200408639215976
62	0xbfacc409d12c04c4	-0.0561831538998461
63	0xbfa128dadff8d6e4	-0.03351482376130635
64	0xbf909ff49d6060ba	-0.01623518190908222
65	0x3fb1b1c57bb3e9fa	0.06911882658088322
66	0x3fa12051aac04f25	0.033449699491170194
67	0x3fa31cd502e8e2ca	0.037329346280278466
68	0x3fa333ef0c1b2110	0.03750559828546518
69	0xbf8aef4d3fa267bd	-0.013151744369952806
70	0xbf9e285fb4ffebb8	-0.029450889036507027
71	0xbf997a02285bee98	-0.024879487717937993
72	0xbfa9bdf41d2eaa7e	-0.050277355730334414
73	0xbf6230f998238a8e	-0.0022206187141916084
74	0x3f7dba29161e4099	0.007257614606615581
75	0x3fb00fb8c838b0b7	0.06273989570826442
76	0x3f69e947703e76fd	0.0031629939348495326
77	0x3fa7bc398cd9978a	0.04635791630134552
78	0xbf990a46e3de89ab	-0.024453265817678076
79	0x3f88174c051393ac	0.011763185410424835
80	0xbf9a66adbf19ca87	-0.025782313145507742
81	0xbfaacadd106c47fc	-0.052328975920445914
82	0xbfb29084bc7782be	-0.07251767731896572
83	0xbf91c52c79e72383	-0.017353720608102485
84	0x3f9b4fc497d5576e	0.026671478049443413
85	0x3fb17804b71ad751	0.06823758573849871
86	0x3f827a25b7262200	0.009022040035021384
87	0x3fb64d1ad6d44778	0.08711402649740119
88	0xbf8192ee8fa04940	-0.008581031568642872
89	0xbf8da54f9fe5e2bf	-0.014475462023925243
90	0xbfa395cbe58eb8b4	-0.03825223138061187
91	0xbfa811b1d7a98c9d	-0.047009999824490147
92	0xbfb1d1a43dde9bc5	-0.06960512648093616
93	0xbfa4424121e0cbee	-0.03956798113394898
94	0x3f918c0b296dc484	0.017135786441433
95	0x3faec03d423bb5e8	0.060060419402230114
96	0x3f9005d04e3488b9	0.015647177479998862
97	0x3fb6bf9ab5fa2d26	0.08886115019611349
98	0x3f729db076d8a7c5	0.004544915498209738
99	0x3f80c31a0102b576	0.008184626727905746
100	0xbf853725f6cb5d2d	-0.010359093278948872
101	0xbfab9b3e3d12bf2a	-0.053918786006191446
102	0xbfb93768b63f6a72	-0.09850172471434762
103	0xbfb1806183a40f7f	-0.06836518730056972
104	0xbf669c561d6e5f90	-0.0027600938733022898
105	0x3faac9b7cba47c2f	0.05232023583288769
106	0x3f8798accc597c41	0.011521673189404892
107	0x3fbf7e0e7d02c024	0.12301722099323392
108	0x3fac86b8e61a4db5	0.05571534928199232
109	0xbf81c09bdf3f49e7	-0.008668153524841805
110	0x3f8f9536bd1ddac0	0.015421321531659316
111	0xbfa1f18ca302a7c2	-0.03504600038407048
112	0xbfbee0ed6d3d23ee	-0.12061962048495875
113	0xbfb0a6a1aca2c558	-0.0650425955270938
114	0xbf9a9c783268dadd	-0.02598750884700506
115	0x3fa4851eff907125	0.04007813329391955
116	0xbfa3586ef5879d45	-0.03778406855763675
117	0x3fbf9dd59fcd047a	0.12350211287868432
118	0x3fb0a9fd5909963a	0.06509383605733712
119	0x3fa4acdf811984f4	0.04038141680644883
120	0x3f9469050f5e36e3	0.019931868613233383
121	0xbfa1ba487a21b4e3	-0.03462435236802166
122	0xbfc479b9c2d11455	-0.15996477139029489
123	0xbfa9fd4bac1267e2	-0.05076061702239067
124	0xbfabddcef971cc2a	-0.05442663950898237
125	0x3fa14b447900e56b	0.03377737023442758
126	0x3f95b20b82414760	0.021187000107892984
127	0x3fb08795cb4a39c1	0.06456886494763749
128	0x3fb569d3d03f30ee	0.08364604791785599
129	0x3fb3a073c30bc985	0.07666705619684507
130	0x3f9e1b39bb10ca4c	0.02940073208101017
131	0xbfa4333783d89921	-0.03945325359772967
132	0xbfc60744c7508b8a	-0.17209682209167126
133	0xbf8841ecf002a340	-0.011844492983372867
134	0xbfb658f944f501a4	-0.08729513104936487
135	0x3fb0207a2df0e94f	0.06299556371314917
136	0x3fa6ae89db6b3931	0.04430037311031965
137	0x3f7d9a15e86d6e23	0.007227025583087551
138	0x3fb756abb1736fed	0.09116623956964505
139	0x3fb35a911a9a450f	0.0756006898830217
140	0x3fa2a881d019c524	0.03644185700694383
141	0xbfa3dca5222b7bf1	-0.03879276315796421
142	0xbfc893137fe4e8c2	-0.19198840851624338
143	0x3fa4849ae4b9c756	0.04007419626294843
144	0xbfbd53ad7a1ef299	-0.11455806952921889
145	0x3fb365e362c64cd1	0.07577344094743245
146	0x3fa0c39f54c58765	0.032742480371566164
147	0xbf79845c83071cab	-0.006229745268178248
148	0x3fb9c8f8fb7ce3d8	0.10072284831848266
149	0x3fb0d9844a780c5d	0.06581904237832377
150	0x3fa7abb2bda2547c	0.04623182835454373
151	0xbf967b6d080c2d54	-0.021955207458672035
152	0xbfcbe627e02883f9	-0.21796129651286814
153	0x3fa9806534752999	0.049807703641437225
154	0xbfc14ef46ecd2d7c	-0.135222009756358
155	0x3fa79a5c7a947c83	0.046099557841665216
156	0x3fa34ce49326d3e3	0.03769602104458849
157	0xbf781677395ca447	-0.005880799979231694
158	0x3fbcfdab902e99ba	0.11324569959706468
159	0x3fb683233b01ced3	0.0879385012684069
160	0x3fac7544251f35d5	0.055582170039638314
161	0xbf8f0b2b7e551010	-0.015158023636679757
162	0xbfca8f666c0469b3	-0.2075012233188552
163	0x3faf99f4e1c0a9a5	0.0617214704110041
164	0xbfc043d9c26e4120	-0.12707063668904883
165	0x3f6de2c260ba920b	0.00364816631720744
166	0x3f9b7d488213f909	0.02684510511334629
167	0x3fa67e04b77ae76a	0.043930194280121196
168	0x3fb7296ca69ed069	0.09047583644752567
169	0x3fb149cefe40389a	0.06753247935577847
170	0x3fa08b5dfd48ded2	0.032313286942039846
171	0x3f93f7c7902020d2	0.01949989144489523
172	0xbfc91052ccbd0fd1	-0.19581065175054715
173	0xbf7e4dcea0dffc3c	-0.007398421423203291
174	0xbfbf766e49bc3e38	-0.12290086078814333
175	0x3f96b4b8876dd79a	0.022173770204481615
176	0x3f5aa5d61ce2d5b6	0.0016264525361696486
177	0x3fafb2bc40a2d748	0.06191051758780347
178	0x3fbb76dbd8f36f7c	0.10728239103940312
179	0x3fb4d0255fed5603	0.08130105583162366
180	0xbf6cb0166b41ba62	-0.0035019338484326016
181	0x3f8a47b45bb3bbb5	0.012832078026319008
182	0xbfccec4bcbbce17a	-0.22596118400702975
183	0xbf8c0ed0572977ff	-0.013700130138371234
184	0xbfbdbe7dc83eed8f	-0.1161879171258333
185	0x3fb0eaed15efbe3b	0.06608468804892535
186	0x3f915de58e1bb707	0.016959749983406016
187	0x3fb7150d669d846f	0.0901649833226814
188	0x3fb80a94fbc2d8d7	0.09391146799575566
189	0x3fb452fc7d6d9128	0.07939127027708948
190	0xbf955636dcf41f7b	-0.020836693988740756
191	0xbfadee078ae39339	-0.058456645683497795
192	0xbfc99caaec0c2817	-0.20009361768490017
193	0xbf9e9f093f9adfcc	-0.029903549677982075
194	0xbfbdc3a25bc7123d	-0.11626639118828393
195	0x3fb69907f3fdf75b	0.08827256876790328
196	0x3f87c89514db508a	0.011613049220081235
197	0x3fb0dcbf58004e0a	0.06586833857027599
198	0x3fc2ea01175a3bf6	0.14776624336488425
199	0x3fbcae96b3cfd8ef	0.11203901185931263
200	0xbf8ae15ddc48c76e	-0.013125165257495044
201	0xbfb349649b730e72	-0.07533863825943302
202	0xbfcaa1167c08fc4a	-0.20804101044083928
203	0x3f6476933269e6f1	0.0024979472103127055
204	0xbfbcf0313e5d3fe4	-0.11304004452290389
205	0x3fb165f14074a606	0.06796176742195578
206	0x3f9f0866b8020b42	0.030305485707241127
207	0x3fb0c11f0ddc1760	0.06544679726002078
208	0x3fbeb9361c8b143f	0.12001360127313009
209	0x3fbf92125b87c7b0	0.12332262739781075
210	0x3f83c7a40c067044	0.009658128373125525
211	0xbfb09a807285cdc2	-0.06485750957454342
212	0xbfc6d2520f076e7b	-0.1782934735664304
213	0x3f93cc02ece513b3	0.01933292933360393
214	0xbfba545b8097cdc4	-0.10284969224431167
215	0x3faea54f7ed80fcc	0.05985496924770892
216	0x3f91763015308f00	0.01705241326648288
217	0x3fadb0ead4194293	0.05799039687247389
218	0x3fbd6f55e7b41b45	0.11498009592842802
219	0x3fb12fb6e6ccb82c	0.06713431486852589
220	0xbf92cab2ae53c9be	-0.018351356401532952
221	0xbfb2061325d03e1d	-0.07040519402675512
222	0xbfb29582862d9ad5	-0.07259383941491689
223	0xbf830acf8f53b095	-0.00929796367787387
224	0xbfb172956eb8d789	-0.0681546588246801
225	0x3fa894845196577e	0.048008093795188764
226	0xbf6e90b498699897	-0.0037311103108548893
227	0x3fa86f5b447f21fd	0.0477245827783612
228	0x3fbc4a2bafb1d2ea	0.11050675429744286
229	0x3fa295891da180e4	0.036297116152810976
230	0xbfa0a72fa53e6844	-0.03252552883277862
231	0xbfb9a83544e178ee	-0.1002229016462228
232	0x3fa286f8d0de84ac	0.03618600415871617
233	0xbfac78e930a1236f	-0.05560997694607905
234	0xbfad07d0a00ac3d2	-0.0567002482761222
235	0x3f9ef692e250bda0	0.030237479270167733
236	0x3f8816cb094227e1	0.011762224407238566
237	0x3f8ecb780e3435ed	0.015036523755521858
238	0x3fb3efa93d76a8ab	0.07787568808149341
239	0x3fb2ef0641f8380a	0.07395972357355177
240	0xbfab0b3bd73a4e3a	-0.05282008173267312
241	0xbfb90842753e0b1a	-0.0977822815166686
242	0x3f9c4c35347bb3f8	0.027634459808655948
243	0xbfb0ecf6ca48ce0c	-0.06611578405937041
244	0xbfaa1cb9c20b0592	-0.051000409066101274
245	0x3f9b05769edfd494	0.02638802857105256
246	0xbf7708f8bb61eecf	-0.005623790368300254
247	0x3fa725529347a950	0.04520662353373217
248	0x3faecd274cd3e153	0.060158947113395776
249	0x3fbd2c2ab4cdf2b2	0.11395518221065506
250	0xbfb23bc77aa535e0	-0.07122465843459436
251	0xbfb570285b896309	-0.0837426398733322
252	0xbfa129a53a6d831e	-0.03352085436086426
253	0xbfa5bcc3cbaf4396	-0.042455786336751775
254	0xbf9e8022c2c4e3c9	-0.029785674226534362
255	0x3f9c87e305b90ee1	0.027862117027566028
